Am_bro_sio.onnx (onnx, 206292 bytes, 9 tensors)

layer1.weight f4 [32, 1536]
000000 7d d4 de 3a 85 60 b5 bb a6 d7 b3 bc f4 6c a6 3c
       0.0017000582 -0.0055351877 -0.021953415 0.020315625
000010 1b fd e0 3a 66 07 2c bc 9c 3d c7 3b 41 86 6a 3c
       0.0017165275 -0.010499811 0.0060803425 0.014314235
000020 bb 99 57 3c 56 f3 bf 3c a7 40 01 bc b3 fa d9 3b
       0.013159211 0.023431461 -0.0078889495 0.0066522
000030 60 80 d3 ba a1 ee 4e 3c 1a 49 d2 3a 22 b1 4b 3d
       -0.0016136281 0.012630136 0.0016043514 0.049729474
000040 2b 79 03 3c dc 2b 16 3c 79 c9 c4 3b fa 20 25 bc
       0.008024494 0.00916573 0.0060054627 -0.010078663
000050 a6 99 d8 3b 7f e1 86 bc 76 23 9f bc 90 d1 29 39
       0.006610113 -0.016464947 -0.019426089 0.00016195164
000060 fc f5 d3 3b 13 6d 20 3c 01 b6 10 bc eb cd 85 3c
       0.0064685326 0.00979163 -0.008832456 0.01633354
000070 fe 2a ee 3b 92 84 ba 3c fa 60 1f bc ce f9 9c 3c
       0.0072683087 0.022768293 -0.009727711 0.019162085
000080 46 a5 6a 3c d2 b8 bc bc f0 19 4a bb c8 ea 85 3b
       0.014321631 -0.023037348 -0.0030838214 0.004086826
000090 e4 66 4f 3c 90 99 9b bb 7e 50 89 3c da 07 c7 3c
       0.012658808 -0.0047485307 0.016762014 0.024295736
0000a0 a2 ae f3 bc 74 6e ec ba 24 20 ca 3a 1f 52 b6 bc
       -0.029746357 -0.0018038289 0.0015420956 -0.022255955
0000b0 20 5e f7 3c 94 a7 12 bc db 8b 60 bb 55 10 ab bc
       0.03019625 -0.008951087 -0.0034263048 -0.020881811
0000c0 49 26 ff 3c d4 df ba 3c 1e bf a9 bc 4a c9 45 bc
       0.031146185 0.022811808 -0.020721015 -0.012071917
0000d0 c7 2f d2 3c a5 e2 3b bc 4b 59 29 bc 4f 40 58 3c
       0.025657548 -0.0114676105 -0.0103362305 0.013198926
0000e0 a7 b9 26 bc ba 52 23 bb 6a 9d 4f 3c ee 40 fb 3b
       -0.010176099 -0.0024921135 0.012671808 0.0076676523
0000f0 a7 5d 6e 3c 21 8d 03 bd 3d 57 d3 bb 9c b4 4b b9
       0.014548696 -0.032117013 -0.0064496086 -0.00019426871
000100 17 59 12 bc f0 c2 a0 bc d3 70 06 bc 3e 6e fa bb
       -0.0089323735 -0.019624203 -0.00820561 -0.0076425364
000110 f2 92 19 3c 38 21 81 bc 31 45 0a bc ca 33 3a 3c
       0.009373413 -0.01576291 -0.008439348 0.011364887
000120 eb 7b 65 bc 10 2c fd bb 01 64 92 bc aa 61 aa 3b
       -0.014006595 -0.0077262 -0.017869951 0.0051996307
000130 e2 20 05 bd 0d 4a 10 bc f0 8f 00 3c 14 24 04 bc
       -0.032502063 -0.008806718 0.007846817 -0.008065242
000140 14 92 dc 3b 9c 55 de 3c 30 f4 d0 3c da 94 c9 bb
       0.006731281 0.027140431 0.025507063 -0.0061517777
000150 77 8f cd bb 72 29 b6 bb d8 7a 93 3b c9 81 ed 3b
       -0.006273206 -0.00555914 0.004500728 0.0072481376
000160 10 d8 81 3c 64 cd 8b 3c 66 6e be 3b 3f a2 00 3c
       0.015850097 0.017065711 0.0058115004 0.0078511825
000170 34 bc 9a bc ce 22 88 3c 6b d2 81 bc cd ca 2b 3c
       -0.01888857 0.016618159 -0.015847405 0.010485363
000180 5b d3 47 bc c2 da c7 bc 30 1f ce bc c5 d2 c0 bc
       -0.012196387 -0.024396304 -0.025161356 -0.023538003
000190 d1 61 7b 3c 5f 5b 9a 3c 57 b1 b8 bc 7e 59 3e 3c
       0.0153431455 0.018842397 -0.0225455 0.011618016
0001a0 ad eb 73 3b 11 c8 33 bc f5 f2 a9 bc 5c 4a ad 3a
       0.003721933 -0.0109729925 -0.020745734 0.0013221013
0001b0 1c 86 20 bd 74 02 0f bd cf 0d e0 3c 1d 05 10 3b
       -0.039190397 -0.03491445 0.027350334 0.0021975704
0001c0 db 3d 66 3d 9e de 25 3b 7d 1a 3f 3c 45 dd ed bb
       0.056211334 0.0025309692 0.01166403 -0.0072590434
0001d0 80 61 cc 3c 0c e6 61 3c 6c 33 d0 bb 91 60 3c 3b
       0.024948835 0.013787758 -0.006353786 0.0028744082
0001e0 3e 80 b4 bb c3 81 89 bc fc d1 4d 3c cb b8 66 3c
       -0.0055084517 -0.016785508 0.012562271 0.014082144
0001f0 b9 df 88 bc d7 98 08 bd 3b ab 89 ba a0 6a de bb
       -0.016708242 -0.033348884 -0.0010503301 -0.006787613
000200 a8 d6 5d ba d0 2b cc bc 6e 92 cb bc 7c f7 59 bc
       -0.0008462467 -0.024923235 -0.024850097 -0.013303634
000210 c8 8b a2 3b c2 15 64 3c 59 ac 43 bc f5 7f 97 ba
       0.004960511 0.013921203 -0.011942946 -0.001155852
000220 d0 fe 3a 3c 6d 5c 30 bc 0b 19 ab 3c 77 ba 9f 3c
       0.011413291 -0.0107642235 0.020885965 0.019498093
000230 0b 76 09 3c 8d 84 e4 bb 79 d0 81 bc 21 5b f6 bb
       0.00838996 -0.006973809 -0.015846478 -0.0075181876
000240 05 fa c9 bb 05 7d 36 bc 31 7e ae 3b aa 1f 0c 3b
       -0.006163838 -0.011138205 0.005325102 0.0021381178
000250 4e 74 17 3c 8a 79 35 3a 53 74 f5 3b 15 78 05 3b
       0.009244038 0.0006922713 0.0074906736 0.0020365764
000260 99 af 24 3b 00 d0 cf 3b ed 36 7c 3b 7f b6 ae 3b
       0.0025129078 0.006341934 0.0038484887 0.005331814
000270 c2 90 4e 3c d8 fa 3f bc 58 4d f8 3b d2 5b 90 b8
       0.012607755 -0.011717521 0.0075775795 -6.883558e-05
000280 76 d0 82 3b d8 72 18 3c 7e 3c 0f bd 96 39 86 3c
       0.0039921356 0.009304725 -0.0349698 0.016384881
000290 8c 7e 11 3d 0c 7e c9 bc 1f bf aa 3b 39 12 7f 3b
       0.035521075 -0.024596237 0.0052107717 0.0038920774
0002a0 2c 03 a5 3c 71 4c cf 3b 35 5e eb bc ee 21 75 3b
       0.020143114 0.006326251 -0.028731445 0.0037404257
0002b0 f3 bb b7 bb ff c0 3d 3c 83 66 c0 3b ec be 84 bc
       -0.005607122 0.011581658 0.0058715953 -0.01620432
0002c0 77 e5 f1 bb 01 eb 0a bc f0 6f ab 3b f2 77 84 bc
       -0.0073820907 -0.008478881 0.00523185 -0.016170476
0002d0 89 03 18 bc ac c5 fa 3c 08 81 dd 3c 48 d1 8a 3c
       -0.009278187 0.030611835 0.027039066 0.016945496
0002e0 fa 47 14 3c b5 43 80 3c 20 26 a9 bc 2a 51 03 3b
       0.009050364 0.015657285 -0.020648062 0.0020037391
0002f0 8a 11 46 3b b3 b2 93 bc 2f 6f 9a bc 47 b6 92 3c
       0.0030222856 -0.018029546 -0.018851845 0.017909182
000300 21 52 b8 3b 48 ab 3a 3b 4b 9d 1d 3a ed e0 d0 bc
       0.005625025 0.002848344 0.0006012513 -0.025497878
000310 75 93 e5 bc d4 fb a8 bb 67 56 97 bc f3 9a 8a 3b
       -0.028024415 -0.0051569734 -0.018473817 0.004229897
000320 2f 47 29 bc 18 ba 2b 3b 74 fb dd b9 37 58 2b bc
       -0.010331913 0.002620345 -0.00042339752 -0.010458044
000330 d9 56 77 bc ca 7b fc bc 4b 75 82 3b e3 51 93 bc
       -0.01509639 -0.030820746 0.0039812676 -0.017983383
000340 23 4c 0c 3d 1e 24 31 bb 1e 65 ff 3b a8 83 d6 bc
       0.034252297 -0.0027029584 0.0077940365 -0.026185825
000350 1b cd 26 bb 89 3b 92 3c 37 25 47 3a 75 96 17 3c
       -0.0025451842 0.017850654 0.0007596793 0.00925218
000360 ce cf a6 bc 95 5f 72 bc 9b 85 a2 bc b0 cf 82 bc
       -0.02036276 -0.014793296 -0.019839099 -0.015968174
000370 6d 73 7d ba c4 af e4 bc 61 c1 50 bc d7 10 99 ba
       -0.0009668384 -0.027915843 -0.012741418 -0.0011677992
000380 a5 45 af bb 7d af b1 bc 49 38 a4 3c 99 81 4e bc
       -0.0053488784 -0.021690125 0.02004637 -0.012604141
000390 ea 94 99 3c 4d 99 64 3c c7 0b c4 3c 92 97 e0 3b
       0.018747766 0.013952565 0.023931397 0.006854006
0003a0 ca 28 0e 3d c4 8f 09 bd 32 e1 4a 3c 39 ad cb 3a
       0.03470687 -0.03358437 0.012382792 0.0015539295
0003b0 9d 99 d8 3b a2 2c 50 38 ec a3 40 ba 98 23 ab 3c
       0.006610109 4.9632632e-05 -0.0007348645 0.020890996
0003c0 e0 c8 2b bc fa 9f a9 3b 26 02 a3 bc ff bb 96 ba
       -0.010484904 0.0051765414 -0.019898485 -0.0011500119
0003d0 49 cd 48 3c 3c c6 26 bc 9d 28 d0 3b 3a 62 2e bb
       0.012255975 -0.010179099 0.0063524977 -0.002660884
0003e0 06 78 90 39 2d fd 55 bb a8 8e cb 3a e7 92 cd 3b
       0.00027555245 -0.0032652125 0.0015530186 0.0062736156
0003f0 0e 5b 19 bc b3 22 0e 3d 12 65 a4 ba a0 4a 62 bc
       -0.009360088 0.03470106 -0.0012542328 -0.013811737

layer1.bias f4 [32]
000000 8a b9 b2 bb 66 cc 48 3b 3b 55 7c 3c ac 34 89 bc
       -0.005454247 0.003063941 0.01540118 -0.016748749
000010 2c b3 d2 bc 07 82 ea bb b2 95 a1 bc 23 63 68 bc
       -0.025720201 -0.0071566137 -0.0197247 -0.014183792
000020 29 f7 9b 3c 6d 68 83 3b 14 35 e6 3b d5 36 8f bc
       0.019038754 0.0040102513 0.0070253704 -0.0174822
000030 d1 ca ac bc 4a 68 5d 3c 28 56 f7 bb 59 b2 3d 3b
       -0.021092804 0.013513634 -0.0075481124 0.0028945415
000040 1e 76 3f 3c cf 3c 80 bb 1e 8c 4b 3c 9b 62 71 bb
       0.011685876 -0.003913499 0.012423543 -0.0036832455
000050 a7 40 84 3c f7 da 30 bc cf e7 32 bc f1 18 54 bc
       0.01614411 -0.010794393 -0.010919525 -0.0129454
000060 f7 cc cf 3c 6a c5 5a bc 6d 99 b9 3c 37 d0 fa 3a
       0.02536629 -0.013352731 0.022656167 0.0019135539
000070 ab b4 ad bc f4 87 65 bc ca f5 4d bb 88 23 0c bc
       -0.021204313 -0.0140094645 -0.003142702 -0.008553393

layernorm1.weight f4 [32]
000000 5d d1 7d 3f 74 b5 84 3f 68 a1 76 3f d8 6f 79 3f
       0.9914759 1.0367875 0.96340036 0.97436285
000010 ec a6 77 3f 6d d2 80 3f 61 c7 7b 3f a7 7e 7b 3f
       0.9673908 1.0064217 0.98351103 0.9824013
000020 71 5a 80 3f 4f e2 7d 3f 82 c8 7a 3f a9 cb 7c 3f
       1.00276 0.99173445 0.979622 0.9874826
000030 d9 db 82 3f e7 91 78 3f e4 46 79 3f 24 44 8c 3f
       1.0223342 0.9709763 0.97373796 1.0958295
000040 ce de 79 3f 98 8a 79 3f 58 76 7f 3f be 07 80 3f
       0.976056 0.974771 0.99789953 1.0002363
000050 b6 ec 77 3f 0a 8d 79 3f 1f 35 80 3f 37 fc 84 3f
       0.9684557 0.97480834 1.0016211 1.038947
000060 3a 6f 74 3f b7 5b 70 3f f3 06 7c 3f 70 01 81 3f
       0.9548222 0.93889946 0.98448104 1.0078564
000070 a4 ed 7e 3f 86 11 75 3f 92 26 7b 3f 47 2d 80 3f
       0.9958136 0.95729864 0.9810573 1.0013818

layernorm1.bias f4 [32]
000000 e1 c2 18 3d c7 16 e2 3b 91 6b 24 bd 12 34 22 3c
       0.037295226 0.006899688 -0.040141646 0.00990011
000010 61 ca d3 bc 76 80 91 bc 22 95 b6 3b 8c a9 11 bd
       -0.025853338 -0.01776145 0.0055719772 -0.035562083
000020 14 98 e8 3c 54 4c c2 bc 29 dc c4 3c 2c f2 6d bc
       0.028392829 -0.023718037 0.024030762 -0.01452307
000030 23 aa ce 3c 0b 30 39 bd 68 bb b0 3b 14 b0 a2 3c
       0.025227612 -0.045211833 0.0053934343 0.019859351
000040 a1 c4 04 bc f3 82 24 bd 67 28 98 3c 71 bc 39 3c
       -0.008103521 -0.040163945 0.018573953 0.011336432
000050 63 f5 19 3c 80 28 73 bc 82 10 fb 3b a8 e2 db 3c
       0.009396884 -0.014841199 0.00766188 0.026841477
000060 bb 67 3a bd e4 cf 25 bd 7e 90 f6 bc e9 88 c6 3b
       -0.04550908 -0.040481463 -0.030098196 0.0060588014
000070 28 e5 b3 3c 0c d3 f4 bc cb e1 db bb 0a b2 8f 3c
       0.021959856 -0.029885791 -0.006710266 0.01754095

blocks.0.fcn_layer.weight f4 [32, 32]
000000 45 39 bd 3d c3 e0 34 be 95 38 5e 3d 6f 56 93 3d
       0.09239439 -0.17663865 0.05425318 0.0719422
000010 53 a8 37 3e 7b c1 01 3e af dc ac 3d b0 63 e1 bd
       0.17935304 0.12671463 0.084405296 -0.11005342
000020 26 00 30 be e1 90 8c bc cf 5c 03 be 67 bb 9e 3d
       -0.17187557 -0.017158927 -0.12828372 0.07750588
000030 4a 70 44 3e 52 b7 30 3c ba 80 3e 3a fa a4 68 3e
       0.1918346 0.0107858945 0.00072671066 0.22719184
000040 69 7d 07 be ab 15 fc bb ae 8d 0a 3e 0a 3a ec 3b
       -0.13231434 -0.0076930127 0.13530609 0.0072090672
000050 e9 42 3b bd 89 78 06 3d 0e 7c 2c 3e 49 b0 b0 3b
       -0.045718107 0.032829795 0.16844198 0.0053921086
000060 4e a1 28 3d 72 06 fb bd 02 04 11 be 3e 15 b7 3d
       0.041169457 -0.12257089 -0.14161685 0.089395985
000070 75 0c 09 3e ee bb a0 bd 53 4c b7 bc cb e7 0b 3e
       0.13383658 -0.07848345 -0.022375261 0.13662641
000080 f9 ce a0 3b cf 97 fc 3d 97 9f 60 bd ce 57 98 3d
       0.0049074856 0.12333643 -0.054839697 0.074386224
000090 ca ab 98 3d b6 51 7b bc 88 59 80 3b 25 85 cc 3d
       0.07454641 -0.015339306 0.003916923 0.09986333
0000a0 79 6b 60 3e 1c a1 0c 3e 05 00 03 bd ef 56 15 be
       0.21915998 0.13733333 -0.03198244 -0.14583944
0000b0 44 7c 29 be d4 48 0e 3e ac b1 08 3d 3e cd 56 be
       -0.1655131 0.13894969 0.033372566 -0.20976731
0000c0 4d e1 07 3e 65 f6 64 bd 46 57 7f 3d ed df 51 bd
       0.13269539 -0.055899043 0.06233909 -0.051238943
0000d0 97 0c ea bc 20 a2 12 be a4 02 7d bd 3e 4d b2 bc
       -0.028570456 -0.14319658 -0.061770096 -0.021765348
0000e0 d1 99 9e bd d1 7e e8 bd 16 4c 5c 3d 76 87 8c bc
       -0.07744182 -0.11352313 0.0537835 -0.017154437
0000f0 5f a8 37 3d 08 95 05 3d 9a 5c 19 3e d0 dd 0f be
       0.044838306 0.03261283 0.14976731 -0.14049459
000100 99 08 75 3d b5 e5 db 3d 93 05 00 be 0f e2 0a 3d
       0.059822652 0.107371725 -0.12502126 0.033906993
000110 0a f4 3f 3d d0 3c 45 bd d4 2e 2b bc e5 20 77 bd
       0.046863593 -0.0481537 -0.010448176 -0.060334105
000120 8b 41 cf 3d 3d fb 78 3d c4 58 de 3d 8f 56 4a 3c
       0.10119923 0.060786474 0.108567744 0.012349739
000130 55 30 07 be f3 fc af 3c f4 51 47 3d d6 d4 12 be
       -0.13202031 0.02148292 0.04866214 -0.14339003
000140 92 46 c3 bd 99 eb 16 be b8 66 0d be c6 8a 10 3c
       -0.095349446 -0.14738311 -0.13808715 0.008822149
000150 18 7a 5b 3d 99 e2 5e bd 90 06 2d be de 19 e5 3d
       0.053583235 -0.05441532 -0.16897035 0.111865744
000160 cf 44 93 bd d4 2d 11 3e ba 45 0f 3e 5e b2 94 bd
       -0.071908586 0.14177638 0.13991442 -0.07260583
000170 9b e0 e4 bd fb 00 2b bc 24 d6 a9 3d 2b 70 dc 3c
       -0.111756526 -0.0104372455 0.08292797 0.026908955
000180 a9 16 10 be 81 d4 67 bd 11 4f 97 3d 5f e5 b5 3d
       -0.14071144 -0.056599144 0.073881276 0.0888164
000190 8f 76 5a 3d ec e5 a5 bd 12 f9 f1 bd 04 48 ae bd
       0.053335723 -0.08100495 -0.118150845 -0.0850983
0001a0 9d a2 16 3e 33 82 2c 3e c3 f9 a3 3d 23 92 26 3e
       0.1471047 0.16846542 0.08006623 0.16266684
0001b0 97 06 60 3d f7 5f 58 bd 70 2c 26 be fc 72 0a bc
       0.054693785 -0.052825894 -0.16227889 -0.008450266
0001c0 e3 13 82 bd af 6e 58 3d b8 4e 52 3d 19 3a 3d be
       -0.06351449 0.05283993 0.051344603 -0.18479194
0001d0 b5 cc 24 bd db bc 47 3e 42 7c 0a be 4b 53 c0 3c
       -0.040234286 0.19505636 -0.13523963 0.023477217
0001e0 a7 22 b8 bc db dc 1f bd 05 a3 30 bd 6e e1 ed 3d
       -0.022477461 -0.039028984 -0.043124218 0.11615263
0001f0 d0 a0 78 3e 38 1a 2c 3e b4 e5 40 3e 09 f6 ec bd
       0.24280095 0.16806877 0.18837625 -0.11570365
000200 a3 47 cd 3c e2 c4 ca 3d 97 7a 75 3d ac a0 2a 3e
       0.025058573 0.09900834 0.059931364 0.16662854
000210 c1 58 80 3c 3b 8e 25 be b6 74 b7 3c 68 42 64 3b
       0.015667321 -0.16167538 0.02239452 0.003482962
000220 be 8c ef 3d 81 a9 11 3e 36 37 9a bc ab 2b a4 3d
       0.11696766 0.14224817 -0.018825155 0.080161415
000230 6e 3f 1c 3d bc 0b 06 3e 3a 8b 2c 3d 5c 00 2b be
       0.03814643 0.13090414 0.042124964 -0.16699356
000240 d8 49 82 bd b1 d8 0c be a4 c1 2a be fd e7 40 3d
       -0.06361741 -0.13754536 -0.1667543 0.04709624
000250 54 35 f3 3b d6 30 bd 3d 80 7d 74 be b4 78 ac bd
       0.0074221287 0.0923783 -0.23876 -0.0842146
000260 d9 c7 a5 3d bf 74 05 3e 37 64 37 be 6f ee 5f 3c
       0.080947585 0.13032816 -0.17909323 0.013667687
000270 15 72 cd bd 9d ea 2d bd 1e b4 95 bd 05 9b 42 3b
       -0.10031525 -0.042460073 -0.07309745 0.002969445
000280 5d c6 ea 3d 8a 6a c1 bc 5a 8b 0b be f8 19 36 be
       0.11463616 -0.023610372 -0.13627377 -0.17783344
000290 9f db 35 be 82 c7 8d bd 7a 4c 43 bd b2 0f e2 3d
       -0.1775956 -0.06922819 -0.047680356 0.1103815
0002a0 10 a2 2e 3d b2 9f 13 be 4c 79 10 3e 67 2f f4 bd
       0.042635024 -0.14416388 0.14108771 -0.11923104
0002b0 ce fb 09 3d 6f 62 00 3e 8a d7 a7 bb 7c d9 03 3e
       0.033687405 0.1253755 -0.00512213 0.12875932
0002c0 a1 c9 f5 bd ff d1 f8 bd 16 5d 61 bd ad 44 c7 3d
       -0.12001348 -0.121494286 -0.055020414 0.09729896
0002d0 19 8d 8d bb 7c fa 0f be 19 06 89 3c 53 9b 12 3e
       -0.0043197987 -0.14060396 0.01672654 0.14317064
0002e0 63 d2 1e be 26 0b de 3d 19 14 26 be 3e cb 69 bc
       -0.15509944 0.1084197 -0.16218604 -0.014269648
0002f0 85 38 db 3d 07 4c be 3d dd 09 1b 3d 61 88 14 3e
       0.107041396 0.09291845 0.037851203 0.1450515
000300 5c 3b a7 bd a7 6e cf 3d b2 14 cf 3c a4 2e d9 3d
       -0.08165619 0.10128527 0.025278423 0.10604599
000310 76 45 26 3d da 92 70 3d 78 c8 7b bc 9e 63 bd 3c
       0.040593587 0.0587338 -0.01536762 0.02311879
000320 4a 4f 7d 3d cf 11 12 3e ca f3 fa bd 15 40 7f bd
       0.061843194 0.14264606 -0.1225353 -0.062316973
000330 c1 2b e5 bc 3a ab 2e 3e 09 b0 05 bd 1e ea e1 bc
       -0.027974965 0.17057505 -0.032638583 -0.027577456
000340 44 57 a7 3d 33 db 69 3d 64 d2 a8 bd 7b de 41 3b
       0.081709415 0.05709381 -0.08243254 0.0029582072
000350 22 24 b4 3d c8 dd 43 3d bb 0b b7 3d 1a 54 88 bd
       0.08795954 0.04781893 0.08937784 -0.06656666
000360 96 90 fe bd db da 24 3c f9 3c 75 bd 33 d9 30 3d
       -0.12429921 0.010061945 -0.0598726 0.043175887
000370 65 58 8a bd 06 32 d6 bd 97 2d 22 be 24 8a a5 3d
       -0.06755141 -0.1045876 -0.15837704 0.08082989
000380 34 b4 25 bd ee 00 d9 bd d0 20 a6 3d 27 5e 8f 3d
       -0.04045506 -0.105958804 0.08111727 0.0700038
000390 c0 39 72 3d 88 5d 0c bd 62 74 48 3e f6 75 21 3e
       0.059137106 -0.034268886 0.19575647 0.15767655
0003a0 ca c6 db 3c 97 cb 2f 3d 28 d1 37 be 7c f4 0b be
       0.026828188 0.042918768 -0.1795088 -0.13667482
0003b0 35 0a 8d bd 3d 1e 04 3d 6c ff c1 3d 02 2a 24 3e
       -0.068867125 0.0322554 0.09472546 0.1603165
0003c0 7a b3 ee 3d 00 e9 68 bd 65 b4 99 bd ae 04 fb 3d
       0.11655326 -0.05686283 -0.07505111 0.12256752
0003d0 b9 02 44 3e 16 56 8a 3d b5 b9 38 3e b7 ca e4 3d
       0.19141664 0.06754701 0.18039592 0.11171477
0003e0 8d 48 fd bd e7 21 e5 bd eb df c5 3d 56 87 76 3d
       -0.123673536 -0.11188107 0.096618496 0.06018766
0003f0 ea 44 2d be 05 5d 07 3d 91 8c ef bd 57 07 18 be
       -0.1692082 0.033047695 -0.11696733 -0.1484655

blocks.0.fcn_layer.bias f4 [32]
000000 c8 68 cd bd ef 6c 18 3d 40 ab 88 bb 14 c0 d9 bd
       -0.10029751 0.037213262 -0.004170805 -0.10632339
000010 1c 38 20 3e ca 22 39 3e 4c 50 9c 3b 21 81 02 3e
       0.15646404 0.18079677 0.0047703143 0.12744571
000020 f2 8d bf 3d 6a fd 59 3d 3e a5 20 be ae 6f 22 be
       0.09353246 0.05322019 -0.15688035 -0.15862915
000030 62 cf 06 3d ee 06 d4 3d e7 3b 64 bd a4 0e b3 3d
       0.03291262 0.10352884 -0.05572119 0.08743027
000040 bb f2 47 3d 1e a3 79 bc b7 6f cf bc b7 f3 ed bd
       0.04881547 -0.015236644 -0.025321824 -0.116187505
000050 a5 16 44 3d 5d 8d 9d 3d 9a 22 dd 3b 02 e6 bc bd
       0.047873158 0.076929785 0.0067485096 -0.09223558
000060 c5 a5 d2 bd 19 00 17 3d bb 5a 6f bd 44 9c fd bd
       -0.10285524 0.036865328 -0.058436137 -0.12383321
000070 d4 0d 65 bd 14 c6 29 3e aa 18 2e bd 8f fc 15 be
       -0.05592139 0.16579467 -0.04250399 -0.14647125

blocks.0.layer_norm.weight f4 [32]
000000 88 41 9e 3f 70 83 8c 3f d7 75 80 3f d0 48 95 3f
       1.2363749 1.0977612 1.0035962 1.1662846
000010 00 1d 8b 3f 76 92 a8 3f 71 42 7f 3f bb 1d a3 3f
       1.0868225 1.3169696 0.99710757 1.2743448
000020 7a 6d a6 3f 76 80 9e 3f fa 52 6d 3f 00 e4 8a 3f
       1.300216 1.2382953 0.9270474 1.085083
000030 8d c3 83 3f 83 be a3 3f 55 a6 8a 3f 96 ab 83 3f
       1.0294052 1.2792515 1.083201 1.0286739
000040 10 7a 82 3f 4d bf 88 3f 41 d9 81 3f d3 04 79 3f
       1.01935 1.068338 1.0144426 0.97272986
000050 c5 12 84 3f 86 d1 89 3f 95 19 88 3f dd f7 a1 3f
       1.0318228 1.0767066 1.0632807 1.2653767
000060 32 04 a3 3f 08 7c 79 3f 6c 13 91 3f 29 39 72 3f
       1.2735655 0.9745488 1.1334052 0.9461847
000070 73 2d 85 3f 76 64 9f 3f 6b b9 88 3f cc de 82 3f
       1.0404495 1.2452533 1.0681585 1.0224242

blocks.0.layer_norm.bias f4 [32]
000000 9b 93 74 3e 5f d3 9e 3d 49 ec bf bc e5 61 97 3d
       0.23884432 0.077551596 -0.0234281 0.07391719
000010 5a 2f 8b 3d 3d 3b 8e 3e d1 25 8f bc 2f 8a 80 3e
       0.06796141 0.2777957 -0.017474087 0.25105426
000020 01 23 8c 3e 28 fb 76 3e 55 61 75 bd 82 36 6f 3d
       0.27370456 0.24119246 -0.059907276 0.058401592
000030 4a bc 47 3c a9 15 85 3e 0a 16 43 3d f3 79 b3 3c
       0.012190888 0.25993088 0.04762844 0.021908736
000040 2b 4b 5c bb a2 c2 96 3d a1 23 d5 3c ae 1b c9 bc
       -0.003361414 0.07361342 0.026017966 -0.024549332
000050 3d 21 0a 3d 40 df 27 3d d9 83 4a 3d 2f 61 7e 3e
       0.033723105 0.040984392 0.049442146 0.2484176
000060 92 b3 80 3e 68 75 6c bd 93 c5 b5 3d 16 64 a8 bd
       0.25137 -0.057729155 0.08875575 -0.08222215
000070 8c 83 81 3b 1a d6 73 3e 4e fe 70 3d fb c4 0f 3d
       0.003952449 0.23812142 0.058836274 0.035099965

last_layer.weight f4 [1, 32]
000000 ed 5a c3 be e0 0d 72 3e 0e a0 e8 3c c4 cc a3 3e
       -0.38155308 0.23638105 0.028396633 0.3199216
000010 20 8d 6b 3e 47 5f a7 be 80 80 07 be 6e 8d b1 be
       0.23003054 -0.32689878 -0.13232613 -0.34678215
000020 68 28 b3 be 7e 33 b3 be d7 c5 79 3c 2f e6 5e 3e
       -0.34991765 -0.35000223 0.015244923 0.21767496
000030 ab c8 02 3d 3f c3 a7 be 3d 28 d2 3d e6 fb 8c 3d
       0.031929653 -0.32766148 0.10261581 0.06883983
000040 0f f2 29 3e fc 51 80 3d ce 20 fb 3d 15 27 b5 bd
       0.16596244 0.06265637 0.122621164 -0.08845345
000050 b4 b2 1a 3d 79 eb 16 3e 3d d3 ad 3d 20 1a c2 be
       0.03776808 0.14738263 0.08487556 -0.37910557
000060 e3 c4 b0 be 45 03 3d 3c 1f 66 95 3e 40 2c fa bd
       -0.34525213 0.011536424 0.29179475 -0.12215471
000070 6c cb 0f 3e 78 c4 ba be ba fd 2c 3e b0 a1 93 3d
       0.14042443 -0.3647802 0.16893664 0.07208574
